python/FastestDet.onnx (onnx, 982710 bytes, 140 tensors)

758 f4 [24, 3, 3, 3]
0	0xbda0dcd1	-0.078546174
1	0xbd17fbee	-0.037105493
2	0xbd9d9b5f	-0.0769565
3	0xbd71aecb	-0.059004586
4	0xbc937cee	-0.018003907
5	0xbd47866a	-0.04871217
6	0xbdad7de5	-0.08471278
7	0xbd81b72a	-0.06333764
8	0xbda04344	-0.0782533
9	0xbdab3eca	-0.083615854
10	0xbd87f017	-0.066375904
11	0xbd6da9a0	-0.058023095
12	0xbd9f8461	-0.07788921
13	0xbd860610	-0.06544125
14	0xbd85e8be	-0.06538533
15	0xbdd580b2	-0.10424937
16	0xbdc657e8	-0.096847355
17	0xbdb4afb6	-0.08822577
18	0x3e208bfe	0.15678403
19	0x3dcc059a	0.09962006
20	0x3dfc3a3b	0.12315794
21	0x3e028ecd	0.12749787
22	0x3da7dc96	0.0819637
23	0x3dc5c4a8	0.0965665
24	0x3e2c119a	0.1680359
25	0x3e12a383	0.14320187
26	0x3e1d965a	0.15389386
27	0x3e2960f4	0.16540891
28	0xbde05623	-0.10953929
29	0xbdb8318a	-0.08993824
30	0xbd834d89	-0.06411273
31	0xbe9fc316	-0.31203526
32	0x3d765f10	0.060149252
33	0x3cf7427f	0.030183075
34	0x3d3ccfd0	0.046096623
35	0x3e52cffc	0.20587152
36	0x3f0f9bc8	0.5609708
37	0xbe5f6829	-0.21817078
38	0xbe801f0f	-0.25023696
39	0xbe131db6	-0.14366803
40	0xbf5a9604	-0.85385156
41	0xbcc7d74c	-0.024394654
42	0xbe7d0c51	-0.2471173
43	0xbda7fb0f	-0.082021825
44	0x3f229f43	0.63524264
45	0x3ed0cf88	0.40783334
46	0x3c14906a	0.009067634
47	0xbd06d74d	-0.03292017
48	0x3dac8fa5	0.084258355
49	0xbf181892	-0.5941249
50	0xbdf05d8f	-0.11736595
51	0xbe2043a0	-0.15650797
52	0xbe3aca51	-0.1824124
53	0x3ece5706	0.4030077
54	0x3e2cb90b	0.16867463
55	0x3e46d704	0.1941796
56	0x3e3344f0	0.17506766
57	0x3deaadda	0.11458941
58	0x3d6cce5b	0.057813983
59	0x3e01f52d	0.12691183
60	0x3e40b6c2	0.18819717
61	0x3e070348	0.13184845
62	0x3e2017e2	0.1563411
63	0xbe928b5d	-0.2862195
64	0xbea5ecf0	-0.3240733
65	0xbe6969a6	-0.22794208
66	0xbea5a19d	-0.32349864
67	0xbed10d1c	-0.40830314
68	0xbe73a1c2	-0.23792174
69	0xbe61b047	-0.220399
70	0xbe91d952	-0.28486115
71	0xbe440dbb	-0.19145863
72	0x3de691ab	0.11258253
73	0x3e281c37	0.16417013
74	0x3d2f6c5c	0.04282795
75	0x3e51aca0	0.20476007
76	0x3eac63e4	0.3366996
77	0x3de56e33	0.112026595
78	0x3d155304	0.036456123
79	0x3df2a848	0.11848503
80	0x3d1239bc	0.03569959
81	0xbe3b6577	-0.18300425
82	0xbe5ad3e3	-0.21369891
83	0xbdd5c48d	-0.1043788
84	0xbe52ace7	-0.2057377
85	0xbe844f72	-0.25841862
86	0xbe0e3971	-0.138891
87	0xbdc6fd4a	-0.0971628
88	0xbe05d949	-0.13071169
89	0xbd48776f	-0.048942026
90	0x3ea0391f	0.3129358
91	0x3e9528b2	0.2913261
92	0x3e5567cd	0.20840378
93	0x3e8e0443	0.27737626
94	0x3e9159b8	0.28388762
95	0x3e478cda	0.19487324
96	0x3e65fd6b	0.22459953
97	0x3e54acfe	0.20769116
98	0x3e1bc43b	0.15211575
99	0xbdfb746b	-0.12278064
100	0xbdcd44fe	-0.10022925
101	0xbdb79e98	-0.08965796
102	0xbdaefa6e	-0.085438594
103	0xbd0a6d05	-0.033795375
104	0xbd88c2df	-0.06677794
105	0xbde87d38	-0.113520086
106	0xbdc42d1b	-0.09578916
107	0xbdb99acc	-0.09062728
108	0x3e28b813	0.16476469
109	0xbe44bb1a	-0.19211999
110	0xbd143fa2	-0.036193497
111	0x3e8b6d11	0.2723165
112	0xbcef53a4	-0.029214688
113	0xbe589f59	-0.21154536
114	0x3de47995	0.111560024
115	0x3b346456	0.0027525625
116	0xbd9f9b7e	-0.0779333
117	0x3f154162	0.5830289
118	0xbee047d2	-0.43804795
119	0xbeb70faa	-0.35754138
120	0x3f3f40dc	0.7470834
121	0xbe00981b	-0.12558024
122	0xbf16a858	-0.5885062
123	0x3ee825a7	0.45341226
124	0x3d4bcee5	0.049757857
125	0xbecb287a	-0.3967932
126	0x3f08af1d	0.533922
127	0xbed7a8ab	-0.4212087
128	0xbeaf2379	-0.3420675
129	0x3f2d6c57	0.6774344
130	0xbe1af85c	-0.15133804
131	0xbf03cc77	-0.51483864
132	0x3f02e897	0.51136154
133	0x3dd361ee	0.10321413
134	0xbee042ee	-0.43801063
135	0xba9627c5	-0.0011455944
136	0x3d44071b	0.04785834
137	0xbcae47e8	-0.021274522
138	0x3d6b10dc	0.057389125
139	0x3e07f6fa	0.13277808
140	0x3d4b8071	0.04968304
141	0x3cad97f4	0.021190621
142	0x3d90a39d	0.07062457
143	0x3d3dae72	0.046308942
144	0x3d21ff02	0.039549835
145	0x3dd907ed	0.10597215
146	0x3d1fc4c3	0.039006006
147	0x3d7d7300	0.06187725
148	0x3e085da2	0.13316968
149	0x3d6fa575	0.0585074
150	0x3c228efd	0.009921786
151	0x3d567e97	0.05236682
152	0x3c24eaf2	0.010065781
153	0x3d401fdb	0.04690538
154	0x3deb63a0	0.11493611
155	0x3d865cdd	0.06560681
156	0x3d7e67dd	0.06211077
157	0x3e051480	0.12996101
158	0x3d9d9625	0.076946534
159	0x3c67659c	0.014123347
160	0x3da04efa	0.078275636
161	0x3d13de6a	0.036100782
162	0xbe6a3cf6	-0.22874817
163	0x3dd30b46	0.103048846
164	0x3e85c0d1	0.2612367
165	0xbec5a04b	-0.38598856
166	0xbc90790f	-0.01763585
167	0x3edfe7a9	0.4373143
168	0xbe980b6e	-0.2969622
169	0xbe76c42e	-0.24098274
170	0x3ebaf650	0.36516047
171	0xbef7e18e	-0.48414272
172	0x3da477e2	0.08030678
173	0x3f18caa0	0.5968418
174	0xbf1eff3c	-0.62108207
175	0xbe20e834	-0.15713578
176	0x3f4de69e	0.8043002
177	0xbecf63c4	-0.40505803
178	0xbef26c26	-0.47348136
179	0x3f1854aa	0.5950419
180	0xbe54bf20	-0.20776033
181	0x3c22f90b	0.009947072
182	0x3e9f6647	0.3113272
183	0xbe951211	-0.29115346
184	0xbe30e427	-0.17274533
185	0x3ee21147	0.44153807
186	0xbde6cef4	-0.11269942
187	0xbeb6aa6a	-0.3567689
188	0x3eabb9c2	0.3354016
189	0x3e42521c	0.18976635
190	0x3e0c5a52	0.1370633
191	0x3d169ed9	0.036772583
192	0x3d1d0b8e	0.038341098
193	0xbc291a2a	-0.010321179
194	0xbbe86203	-0.007091762
195	0xbb9d1232	-0.004793429
196	0xbe42595e	-0.18979403
197	0xbdb2ae77	-0.08724683
198	0xbdbe3f52	-0.09289421
199	0x3d700b65	0.058604617
200	0xbd2fefe0	-0.042953372
201	0x3c7d9803	0.015478137
202	0x3e51ce21	0.20488788
203	0x3e0a9cef	0.13536428
204	0x3e8b726a	0.27235729
205	0x3e241057	0.16021858
206	0x3e30be5c	0.17260116
207	0xbdd56743	-0.10420086
208	0x3c9d7ce9	0.0192246
209	0xbd8ebac4	-0.069692165
210	0xbd85bcea	-0.06530173
211	0x3d9de868	0.077103436
212	0x3dc038c2	0.09385826
213	0x3e5a3a2a	0.2131125
214	0x3e12922e	0.14313576
215	0x3e4ae4d4	0.19813854
216	0xbd027f61	-0.03185976
217	0xbe1644cd	-0.14674683
218	0xbd12579d	-0.035728086
219	0x3d07513e	0.033036463
220	0xbd24e6da	-0.04025922
221	0xbe4b258a	-0.19838539
222	0x3d41e810	0.047340453
223	0x3e640f66	0.22271499
224	0x3dd454f8	0.10367769
225	0xbe6b7c32	-0.22996596
226	0xbf134c82	-0.57538617
227	0xbe9ef223	-0.3104411
228	0x3e45d16d	0.19318171
229	0xbe129278	-0.14313686
230	0xbeeea9b7	-0.46613857
231	0x3ec25529	0.37955597
232	0x3f33380b	0.7000739
233	0x3edd8a66	0.43269652
234	0xbebd8b76	-0.37020463
235	0xbf36e367	-0.7144074
236	0xbef31a33	-0.47480926
237	0x3e61ef5f	0.22063969
238	0xbe420dd8	-0.18950593
239	0xbf02fe36	-0.51169145
240	0x3f1ef345	0.6208995
241	0x3f50a237	0.8149752
242	0x3f1a4a1b	0.60269326
243	0xbec9ca45	-0.39412132
244	0xbd1522bd	-0.036410082
245	0x3e07b9a6	0.13254413
246	0x3c9c89d9	0.0191087
247	0x3ee509bf	0.44733998
248	0x3d451937	0.04811975
249	0x3e226dbb	0.15862171
250	0x3dd049dd	0.10170338
251	0xbea12245	-0.31471458
252	0xbf58fa3b	-0.8475682
253	0x3d94d9ca	0.072681025
254	0x3e901bdd	0.28146258
255	0x3d227d7d	0.039670456

759 f4 [24]
0	0x3eff49ea	0.4986108
1	0x3f587452	0.8455249
2	0x3f00c444	0.5029948
3	0x3eddd207	0.433243
4	0x3dd006ea	0.10157569
5	0x3d4c01c0	0.049806356
6	0x3dc7c45a	0.09754248
7	0xbf8f42f6	-1.119231
8	0x3daf0fd2	0.08547939
9	0x3ceb8ca0	0.028753579
10	0x3e02c962	0.12772134
11	0xb9a338a2	-0.00031131977
12	0x3ec64396	0.3872344
13	0x3f6b5c0c	0.9193733
14	0x3d7ade42	0.061247118
15	0xba30a6b5	-0.00067387085
16	0x3f438baa	0.76384985
17	0x3e8575ee	0.26066536
18	0x3d0f8340	0.03503728
19	0x3c418bb0	0.011813089
20	0x3db6fade	0.08934568
21	0x3fcd9980	1.606247
22	0x3b0e9280	0.0021754801
23	0x3dc08484	0.09400275

761 f4 [24, 1, 3, 3]
0	0xbd34f780	-0.044181347
1	0xbd94014f	-0.07226812
2	0x3d6ab275	0.057299096
3	0xbfa5c399	-1.2950317
4	0xbe82b3d1	-0.25527814
5	0x3f9847fa	1.1896966
6	0xbf98e30c	-1.1944289
7	0xbee32cf7	-0.44370243
8	0x3f88ffd5	1.0703074
9	0x3d9420ec	0.07232842
10	0xbb711dae	-0.0036791372
11	0x3a9cd897	0.0011966404
12	0x3e2a8013	0.16650419
13	0x3da5ae1c	0.08089849
14	0xbd6ac80c	-0.057319686
15	0x3e4111df	0.18854474
16	0x3dbc0e16	0.09182374
17	0xbd57611b	-0.05258284
18	0xba99c3a1	-0.0011731276
19	0x3dea9daa	0.11455853
20	0xbea8d716	-0.32976598
21	0xbdc95228	-0.09830123
22	0x3df31a17	0.118702106
23	0x3eb43db1	0.35203317
24	0xbed02fa5	-0.4066135
25	0x3dcd59b5	0.10026876
26	0x3fce2b14	1.6106896
27	0x3d859ac8	0.06523663
28	0x3d366712	0.04453189
29	0xbe06ccdf	-0.1316409
30	0x3f1f6b13	0.6227276
31	0x3e505abf	0.20347117
32	0xbe5dbe2f	-0.2165458
33	0x3f89cd9a	1.076587
34	0x3ead87b7	0.33892605
35	0xbecdd0ac	-0.40198267
36	0xbbe3fe4c	-0.006957805
37	0x3d32ced9	0.043654297
38	0xbc7ca79d	-0.0154208215
39	0x3d72277c	0.059119686
40	0x3d2e9606	0.042623542
41	0xbd47964d	-0.048727322
42	0x3c8da0aa	0.017288525
43	0xbd93b6bf	-0.072125904
44	0xbe8d92bb	-0.2765101
45	0xbb08b2d4	-0.0020858543
46	0xbb3f762f	-0.002921473
47	0xba333e3c	-0.0006837582
48	0xbf199d4c	-0.6000564
49	0xbcbac03b	-0.02279674
50	0x3f1cb64b	0.61215657
51	0xbf49579d	-0.7864931
52	0xbccfddf2	-0.025374386
53	0x3f435344	0.7629893
54	0xbc1fee5a	-0.009761417
55	0x3cf33883	0.029690033
56	0xbcfd09bf	-0.030888436
57	0x3d1a51b7	0.037675586
58	0x3c0c0c46	0.008547848
59	0xbd99d4ae	-0.075112686
60	0xbc89af45	-0.016807208
61	0xbda9af0a	-0.08285339
62	0xbe789cf1	-0.24278618
63	0xbea69319	-0.32534102
64	0x3dac9b19	0.0842802
65	0xbda0db76	-0.07854359
66	0xbf321963	-0.6956999
67	0x3ea52cfc	0.32260883
68	0x3f7374dd	0.95100194
69	0xbed11162	-0.40833575
70	0x3e2a1a55	0.16611607
71	0x3f73b3aa	0.9519602
72	0xbc20da76	-0.00981771
73	0xbd56352e	-0.05229681
74	0x3ccdc247	0.025117053
75	0xbd847894	-0.06468311
76	0xbd36989b	-0.04457913
77	0x3e02f701	0.12789537
78	0xbd0f649f	-0.03500807
79	0x3d091a6a	0.033472456
80	0x3ea68aa3	0.32527646
81	0xbbec2dd0	-0.0072076097
82	0xbe000dc5	-0.12505253
83	0xbcd36008	-0.025802627
84	0xbd202df7	-0.039106335
85	0xbd7bbfea	-0.06146232
86	0xbd514835	-0.051094253
87	0x3c9b1436	0.018930536
88	0xbd45d2ee	-0.04829686
89	0xbe20e304	-0.157116
90	0xbd68e2e9	-0.056857023
91	0xbcb9de95	-0.022689143
92	0x3d5c3e28	0.053770214
93	0x3dce5765	0.10075263
94	0xbe3d4b0b	-0.18485658
95	0xbedcc224	-0.43116868
96	0x3f02fcab	0.5116679
97	0xbf1bbd0a	-0.60835326
98	0xbff82c88	-1.938859
99	0xa8d3e434	-2.3524673e-14
100	0xa90c184b	-3.1107315e-14
101	0xa920cdc9	-3.5705627e-14
102	0xa89919f0	-1.6997661e-14
103	0xa8799550	-1.3854654e-14
104	0x28d13432	2.3226297e-14
105	0xa8d8162a	-2.399043e-14
106	0x290591a6	2.9658262e-14
107	0x29157cd7	3.3192927e-14
108	0x3d8f96b9	0.0701117
109	0x3d84b9e6	0.0648077
110	0x3d91bc46	0.071159884
111	0xbe09dc47	-0.13462935
112	0xbeca45d6	-0.39506406
113	0xbe8a92cd	-0.27065125
114	0xbd913796	-0.0709068
115	0xbee2ecc7	-0.44321272
116	0xbeac1320	-0.3360834
117	0xbc0b3566	-0.008496618
118	0xbd1cdcde	-0.038296573
119	0xbc86dae6	-0.0164618
120	0xbc94de07	-0.018172277
121	0xbdd29d71	-0.10283936
122	0xbe49d0b6	-0.19708523
123	0x3b63af93	0.0034742102
124	0xbd636493	-0.055515837
125	0xbe1598c4	-0.14609057
126	0xbc5c4ee2	-0.0134465415
127	0x3d39a128	0.045319706
128	0xbcc673d3	-0.024225151
129	0x3cba5de7	0.022749854
130	0x3d4c9e84	0.04995586
131	0xbe1d8945	-0.15384395
132	0xbb91e624	-0.0044524837
133	0xbc1c5650	-0.009542063
134	0xbe8085a9	-0.25101975
135	0x29329c99	3.9659766e-14
136	0x2710c756	2.0092075e-15
137	0xa8e1b890	-2.506006e-14
138	0xa89072c3	-1.6036982e-14
139	0xa92122cf	-3.5779373e-14
140	0x26c09f66	1.3365881e-15
141	0xa952a4cf	-4.6772316e-14
142	0x2906f21d	2.9963977e-14
143	0xa80484ee	-7.3562965e-15
144	0x3d8f04da	0.06983347
145	0xbd01141e	-0.031513326
146	0x3c5e45d6	0.013566455
147	0x3eb7ea97	0.35921165
148	0xbe126ba4	-0.14298874
149	0xbf253bed	-0.64544564
150	0x3f21aad0	0.63151264
151	0xbe98e36b	-0.29861006
152	0xbfa11132	-1.2583373
153	0xbf09573b	-0.5364873
154	0x3e39d6e3	0.18148379
155	0x3e9c9042	0.3057881
156	0xbfad9c6c	-1.3563361
157	0x3e80dfc9	0.25170735
158	0x3fd43597	1.6578854
159	0xbf98cb06	-1.1936958
160	0x3d8bc863	0.0682533
161	0x3fd37a88	1.6521769
162	0xbd330d28	-0.04371372
163	0xbdcdaca3	-0.100426935
164	0xbde21929	-0.11039955
165	0xbddb5f21	-0.10711504
166	0xbe7f5f4d	-0.24938698
167	0xbe93133a	-0.28725606
168	0xbdf2a2c9	-0.11847455
169	0xbe827362	-0.25478655
170	0xbe89be13	-0.26902828
171	0x3c432011	0.011909501
172	0x3dd0e0f7	0.10199159
173	0xbcdbbb89	-0.026822822
174	0x3dd41783	0.10356047
175	0x3db3d76a	0.08781321
176	0xbe0b7e19	-0.13622321
177	0x3d2c4716	0.04205998
178	0xbcda58e4	-0.026653714
179	0xbec4cbb2	-0.38436657
180	0x3d058586	0.03259804
181	0xbcd24da8	-0.025671795
182	0xbb8d90bc	-0.004320232
183	0x3dec8dc0	0.11550474
184	0x3d0fae10	0.03507811
185	0xbb2ab689	-0.002604874
186	0x3df8b13d	0.121431805
187	0x3d4ce4fc	0.050023064
188	0xbbca62aa	-0.0061763125
189	0x3c9cdc78	0.019148096
190	0x3b82ff90	0.0039977506
191	0xbd35a86b	-0.04435007
192	0x3f0ec986	0.5577625
193	0xbdd606d9	-0.10450525
194	0xbf0aea93	-0.5426418
195	0x3ef797ba	0.48357946
196	0xbd4d6e35	-0.05015393
197	0xbf13be34	-0.577121
198	0xbae5e812	-0.0017540476
199	0x3d7ce2d4	0.061739758
200	0xbb0335f0	-0.0020021163
201	0x3daf083a	0.08546491
202	0x3d2bb80e	0.041923575
203	0xbdb3aa92	-0.08772768
204	0x3c273433	0.010205316
205	0xbdcb69cd	-0.09932289
206	0xbeb2dcf2	-0.34934193
207	0x3d3888b6	0.045052253
208	0x3d8ade7f	0.06780719
209	0x3d524880	0.051338673
210	0x3d7d086f	0.06177562
211	0x3e1842c3	0.14869218
212	0x3e1d5d3e	0.153676
213	0x3d923a92	0.07140078
214	0x3e3cf275	0.18451865
215	0x3e3670b5	0.17816432

762 f4 [24]
0	0x3efaa1f8	0.48951697
1	0xbe936a74	-0.28792155
2	0xbf3f64e2	-0.7476331
3	0xbf415a23	-0.7552816
4	0x3da40b54	0.08009973
5	0x3ce8e060	0.028427303
6	0x3df5ae1a	0.11996098
7	0xbd03f87a	-0.032219388
8	0xbdc95146	-0.09829955
9	0x3e63b230	0.22235942
10	0x3ed46892	0.4148603
11	0x32f80228	2.887198e-08
12	0x3ddee102	0.108827606
13	0x3ebc8149	0.36817387
14	0x3ddcb003	0.10775759
15	0x32f40366	2.8406884e-08
16	0x3f861ce7	1.047757
17	0xbca966f1	-0.02067897
18	0x3e919022	0.28430277
19	0x3db3a031	0.087707885
20	0xbdd166f6	-0.10224716
21	0x3e8a0e92	0.2696424
22	0x3dded6c3	0.10880806
23	0xbe93c2c2	-0.28859526

764 f4 [24, 24, 1, 1]
0	0xbc584f82	-0.01320255
1	0x3d8b2eaf	0.067960136
2	0x3c220650	0.0098892
3	0x3c706198	0.014671706
4	0xbc989fbc	-0.018630855
5	0x3b8a6412	0.004223355
6	0x3c18797a	0.009306306
7	0xbcd13005	-0.025535593
8	0x3be5cba2	0.0070128003
9	0x3d32b1d7	0.043626633
10	0x3ce6913a	0.028145421
11	0xaa5f021e	-1.9807113e-13
12	0xbe675577	-0.22591196
13	0xbdea9bf0	-0.11455524
14	0x3c3d5977	0.011556975
15	0xaa62c587	-2.0141363e-13
16	0x3b3631a4	0.0027800584
17	0x3dc54c92	0.09633745
18	0xbce34824	-0.02774436
19	0xbb9c1ecd	-0.004764414
20	0x3d3a7adf	0.045527335
21	0xbde8b1c9	-0.11362035
22	0xbcb215d7	-0.02173893
23	0xbcb5abcf	-0.022176651
24	0x3da7a188	0.081851065
25	0x3dbf7c2e	0.09349857
26	0x3d7b68ec	0.06137936
27	0x3c9d17e4	0.019176431
28	0x3c910539	0.017702686
29	0xbd00a34c	-0.031405732
30	0xbd355790	-0.04427296
31	0x3e2953e6	0.16535911
32	0xbcfd5ff8	-0.03092955
33	0xbd33557d	-0.0437827
34	0x3f885f72	1.0654128
35	0x2b8d0c8e	1.0022137e-12
36	0xbe5c4496	-0.21510538
37	0xbda5a991	-0.08088983
38	0xbb6ee75d	-0.0036453821
39	0x2ac734f6	3.538625e-13
40	0xbde72fe6	-0.11288433
41	0x3cec8af4	0.028874852
42	0x3dcf9584	0.1013594
43	0x3c819ab2	0.015820835
44	0x3c09a951	0.008402185
45	0xbdb9565d	-0.090496756
46	0xbbe85798	-0.00709052
47	0x3d80af95	0.062834896
48	0x3d882bbc	0.06648967
49	0xbcde60a6	-0.027145695
50	0x3eb98bdc	0.36239517
51	0x3c82af4e	0.015952732
52	0x3d0fde74	0.035124257
53	0xbdbb04a2	-0.09131743
54	0x3be8b2ba	0.007101384
55	0x3bf50b6b	0.007478168
56	0x3c453480	0.012036443
57	0x3d8b87a4	0.06812981
58	0xbeb5af5a	-0.35485345
59	0xaac9d2c1	-3.5851012e-13
60	0x3d0011ef	0.031267103
61	0xbd5d4f7c	-0.05403088
62	0x3d5ea2d5	0.054354507
63	0xaa3d1650	-1.6794313e-13
64	0xbef9c228	-0.48780942
65	0x3ba76c65	0.005109357
66	0xbac26889	-0.0014832179
67	0x3c8808fb	0.016605845
68	0x3a9ee415	0.0012122417
69	0x3d16afe2	0.03678883
70	0xba0d46df	-0.0005389284
71	0xbd1327cd	-0.03592663
72	0xbceb282e	-0.028705683
73	0xbdda0fcb	-0.106475435
74	0xbd6315d9	-0.055440757
75	0x3cd5cf3f	0.0260998
76	0xbd01752d	-0.03160589
77	0x3d95f9cc	0.073230356
78	0x3e878e03	0.26475534
79	0x3da669c0	0.08125639
80	0x3d81d695	0.063397564
81	0x3dafc5dd	0.08582661
82	0x3d5c6895	0.053810675
83	0xaacdc2ea	-3.6550564e-13
84	0x3e578d48	0.21049988
85	0x3ea32641	0.31865123
86	0xbe26bfe0	-0.16284132
87	0x2b0dd11a	5.038345e-13
88	0xbd9829da	-0.074298576
89	0x3dbc91f5	0.092075266
90	0xbf240794	-0.64074063
91	0xbd395881	-0.04525042
92	0x3d1f3144	0.038865343
93	0xbdd7029c	-0.104985446
94	0x3dd073d6	0.10178344
95	0xbf28e9e6	-0.659819
96	0x3c14ccfe	0.009082077
97	0xbd6dde6b	-0.058073442
98	0x3da457f4	0.08024588
99	0x3f55984e	0.83435524
100	0xbc70e0a3	-0.014701995
101	0xbbe762b4	-0.007061327
102	0xbc8fda04	-0.017560013
103	0x3c84b802	0.016201023
104	0xbb44d88c	-0.0030036299
105	0xbd733406	-0.059375785
106	0x3d9f9f00	0.07793999
107	0x298086e9	5.707745e-14
108	0x3b23350f	0.0024903452
109	0xbacdb511	-0.0015694221
110	0xbbe24cf0	-0.0069061443
111	0xaa59fe8b	-1.9361784e-13
112	0x3bc18b47	0.0059064957
113	0x3c6305f2	0.013856398
114	0xbcef0687	-0.029177917
115	0xbb86c39f	-0.0041126753
116	0x3cc020f6	0.023453217
117	0xbc665ece	-0.014060689
118	0xbafc9344	-0.0019269963
119	0xbc8dcdee	-0.017310109
120	0x3ea350b6	0.31897515
121	0x3e64648f	0.22303985
122	0xbba31550	-0.004976906
123	0xbc2fa6b9	-0.010720902
124	0x3c002a7c	0.007822629
125	0x3e9353f8	0.28775
126	0xbe1719c9	-0.1475593
127	0x3db72c83	0.08944037
128	0xbd14f47c	-0.03636597
129	0xbda669ed	-0.081256725
130	0xbdd0cb56	-0.10195033
131	0xab962a03	-1.0669802e-12
132	0xbc67383a	-0.014112527
133	0xbe498ef2	-0.19683436
134	0x3bd4e79f	0.006497338
135	0xab1959cd	-5.4481143e-13
136	0x3e1d4d0d	0.15361424
137	0xbe46150c	-0.19343966
138	0x3f7d13c8	0.9885831
139	0x3d35e056	0.044403397
140	0xbde2cbcb	-0.11074027
141	0x3f2403ae	0.64068115
142	0x3d825634	0.06364098
143	0x3f2e0232	0.679721
144	0xbcca25e7	-0.024676276
145	0x3cafa088	0.021438852
146	0xbc2dc359	-0.010605657
147	0x3b11815d	0.002220235
148	0x3d2c7f17	0.04211339
149	0x3f305683	0.68882006
150	0xbc66180f	-0.014043822
151	0x3e4b1bef	0.19834875
152	0x3d0ca4d1	0.03433687
153	0xbdb4693a	-0.08809133
154	0xbc86a2f6	-0.016435128
155	0xaa5f26c0	-1.9819823e-13
156	0x3d8d4c7f	0.06899356
157	0x3aa8f6b7	0.001289091
158	0xbd221d23	-0.03957857
159	0x2abaf331	3.3208985e-13
160	0xbd14e2ed	-0.036349226
161	0x3cc3fb0a	0.023923416
162	0xbd22d7a2	-0.039756425
163	0xbda417c7	-0.08012348
164	0xbe7a0111	-0.2441447
165	0xbc6c38b1	-0.014417813
166	0x3c998206	0.018738758
167	0xbdb78aa0	-0.089619875
168	0xbd08c49c	-0.033390626
169	0x3dc68624	0.09693554
170	0xbcec67bc	-0.028858058
171	0x3b55dfc1	0.0032634588
172	0xbe15cb6e	-0.14628384
173	0x3b16944b	0.0022976573
174	0x3dcc534a	0.09976824
175	0x3d89f476	0.0673608
176	0x3dfaf960	0.12254596
177	0xbe174743	-0.14773278
178	0x3d270ad4	0.04078181
179	0x2a915246	2.5814263e-13
180	0xbe010141	-0.12598135
181	0xbe85a6d2	-0.26103836
182	0x3e04dbd3	0.12974481
183	0x2b0ced49	5.006729e-13
184	0xbcd60930	-0.026127428
185	0xbca23716	-0.019801658
186	0xbed30f86	-0.4122278
187	0x3cba5f6a	0.022750575
188	0x3d242221	0.04007161
189	0xbc3eac64	-0.011637781
190	0xbdb9adb4	-0.09066334
191	0xbd9118df	-0.07084822
192	0xbcbeed2f	-0.023306457
193	0xbcdeae68	-0.027182773
194	0x3ef453cc	0.47720182
195	0x3c2b00c0	0.0104371905
196	0xbc5f6b6c	-0.013636451
197	0x3c912416	0.017717402
198	0x3c74a4e2	0.014931889
199	0x3c4acce2	0.012377949
200	0xbbf4ce48	-0.0074708797
201	0xbc1457c1	-0.009054125
202	0x3d54d588	0.05196145
203	0xa9fc596a	-1.1206559e-13
204	0xbd45d960	-0.048303008
205	0x3aa0abc2	0.0012258219
206	0x3ac71b50	0.0015190635
207	0xaa8101bd	-2.291621e-13
208	0x3da49f3f	0.08038186
209	0x3cae14a7	0.021250082
210	0xbc4f2d35	-0.012645056
211	0x3c08a507	0.008340127
212	0x3bf3c39b	0.0074390895
213	0xbcc3df9f	-0.023910342
214	0x3c47e5e6	0.012200808
215	0xbbe840bf	-0.0070877965
216	0x3f30be29	0.6904016
217	0x3d005655	0.031332333
218	0xbe52b513	-0.20576887
219	0xbdbde987	-0.092730574
220	0xbd7df9e8	-0.062005907
221	0x3d220403	0.039554607
222	0xbdc053e0	-0.09390998
223	0xbd69b6b8	-0.05705902
224	0xbaba2917	-0.001420292
225	0xbd9970b6	-0.07492201
226	0x3f020c62	0.50800145
227	0x2b3c845e	6.6974714e-13
228	0x3ce6fad1	0.02819577
229	0xbdc7d2a2	-0.09756972
230	0xbcf16d8c	-0.029471181
231	0xaa76dce5	-2.1925827e-13
232	0x3f7d908a	0.99048674
233	0xbc454f9e	-0.012042908
234	0xbc4d0c77	-0.012515179
235	0xbcbc59f6	-0.022992115
236	0x3d194536	0.03741952
237	0x3c7f8e13	0.015597838
238	0xbc9c2dbc	-0.019064777
239	0x3dd40fc5	0.1035457
240	0xbd0778a5	-0.03307404
241	0x3e91a6e5	0.28447643
242	0x3dceb36f	0.10092818
243	0x3d9ebc90	0.07750809
244	0x3d817510	0.06321156
245	0x3d6ae10f	0.05734354
246	0x3e356e91	0.17717959
247	0xbe42203e	-0.18957612
248	0xbd9fd505	-0.07804302
249	0xbc508e71	-0.012729273
250	0x3db37e96	0.08764379
251	0xaab334a7	-3.1833322e-13
252	0xbe35ecf4	-0.17766172
253	0xbda6af7f	-0.08138942
254	0x3d7daf9b	0.06193505
255	0xa9e81d82	-1.03079885e-13

765 f4 [24]
0	0x3e0dedda	0.13860264
1	0xbdd38311	-0.10327733
2	0x3e1c9c7e	0.15294072
3	0x3eca3403	0.39492807
4	0x3dfce487	0.12348276
5	0x3d2edabd	0.042689074
6	0x3c3da9f9	0.011576169
7	0x3e2704ac	0.16310376
8	0x3d228178	0.039674252
9	0x3d7aebc4	0.06126
10	0xbc48e585	-0.012261753
11	0x3cf9fa2e	0.030514803
12	0x3e86ec88	0.26352334
13	0x3deb966f	0.11503302
14	0xbd0bda6e	-0.034143858
15	0x3de09bd9	0.109672256
16	0x3ea6881b	0.32525715
17	0x3d8a4634	0.067516714
18	0x3ddf676f	0.109084
19	0x3dc4b535	0.09604875
20	0x3eb2d521	0.3492823
21	0xbdc2739e	-0.094947085
22	0xbb0c9fc0	-0.0021457523
23	0x3da6b1d8	0.0813939

767 f4 [24, 24, 1, 1]
0	0x3e51f914	0.20505172
1	0x3ca4755f	0.020075498
2	0x3e63b80e	0.2223818
3	0x3e6b5ff9	0.2298583
4	0x3c91e30f	0.017808465
5	0x3d435454	0.047687843
6	0x3bfbf8b7	0.007689561
7	0x3dfb3456	0.12265842
8	0x3b6c042e	0.0036013233
9	0x3c0928b9	0.008371525
10	0x3d85b8f6	0.06529419
11	0x2a881010	2.4169599e-13
12	0x3e1e79ea	0.15476194
13	0x3cd00f47	0.02539791
14	0x3c04430e	0.008072628
15	0xa901f3fb	-2.8855373e-14
16	0x3e968000	0.2939453
17	0x3e381400	0.1797638
18	0x3b71238e	0.0036794874
19	0x3c573bb1	0.01313679
20	0x3b8b63d0	0.004253842
21	0x3ce23195	0.027611533
22	0x3c9b7a43	0.018979197
23	0x3c1639fc	0.009169098
24	0x3dd45ddf	0.10369467
25	0x3db54df2	0.088527575
26	0x3bf95e55	0.007610122
27	0x3cb2d668	0.021830752
28	0x3e4f8b26	0.20267925
29	0x3effd162	0.49964434
30	0x3e1a627a	0.15076628
31	0xbd93738b	-0.071997724
32	0xbea5cdd0	-0.32383585
33	0xbdf9843b	-0.12183424
34	0x3d9d6e98	0.0768711
35	0xaae92637	-4.141563e-13
36	0x3c8c2a51	0.017110022
37	0x3db6d062	0.089264646
38	0xbe8d3ca0	-0.27585316
39	0x28a2e935	1.808675e-14
40	0x3dcdc12c	0.1004661
41	0x3d595d80	0.053067684
42	0xbca1bd16	-0.019743484
43	0xbeac4612	-0.3364721
44	0xbe19ba59	-0.15012492
45	0x3e38ecc1	0.18059064
46	0x3e2a3cf7	0.16624819
47	0xbe18ea93	-0.14933233
48	0x3d41fe9a	0.047361948
49	0xbdc8396c	-0.09776577
50	0xbcce9903	-0.025219446
51	0xbcdd356f	-0.027003018
52	0x3e782c9b	0.24235766
53	0xbe71e661	-0.23623039
54	0xbf0c218b	-0.5473868
55	0xbd1af024	-0.037826672
56	0x3c568e61	0.013095469
57	0xbdb2ea4a	-0.08736093
58	0xbb059205	-0.0020381224
59	0x2acaf9df	3.605579e-13
60	0x3bd6dfc2	0.0065574357
61	0xbd8b1a9e	-0.06792186
62	0x3dc9523a	0.098301366
63	0x2993f65f	6.57085e-14
64	0x3ccece34	0.02524481
65	0x3c54d98c	0.01299132
66	0x3c83622d	0.016038025
67	0x3d8b415c	0.06799576
68	0x3d4613cf	0.048358735
69	0xbe2825d3	-0.16420679
70	0xbc3ae5fa	-0.01140737
71	0xbbafe2c8	-0.0053676106
72	0x3e3d2350	0.18470502
73	0xbea95fd8	-0.33080935
74	0x3d877af8	0.06615251
75	0x3dc72441	0.09723712
76	0x3e068e56	0.13140234
77	0x3e3c4f21	0.1838956
78	0x3e2ea36c	0.17054528
79	0x3d09870e	0.033576064
80	0xbde17c19	-0.11009998
81	0xbec033e6	-0.37539595
82	0xbddb46b8	-0.10706848
83	0x2a55b096	1.8979466e-13
84	0x3ddef37b	0.10886284
85	0x3e46cdad	0.19414397
86	0xbe1a6448	-0.15077317
87	0xaa8221ef	-2.3116185e-13
88	0x3df7abf6	0.12093346
89	0x3db76f7a	0.08956809
90	0xbe03672a	-0.12832323
91	0xbe2842f7	-0.16431795
92	0xbea742cb	-0.32668146
93	0x3e3cf6fc	0.18453592
94	0x3e14c0ad	0.14526625
95	0xbed5fbbd	-0.41793624
96	0xbe5ddccf	-0.21666263
97	0xbcd4eeb1	-0.025992723
98	0xbdf13539	-0.117777295
99	0xbe17fc4a	-0.14842334
100	0xbe94516c	-0.2896837
101	0x3d42b118	0.04753217
102	0xbe861595	-0.2618834
103	0xbc2f097f	-0.010683416
104	0x3de15d9b	0.11004182
105	0xbd5bb1fd	-0.05363654
106	0xbe0099f3	-0.12558727
107	0x2aabbc46	3.0506343e-13
108	0xbe14368c	-0.14473933
109	0xbc9015d5	-0.017588535
110	0x3ddf5ee7	0.10906773
111	0x2b02db90	4.648998e-13
112	0xbea872ee	-0.32900184
113	0xbe024e2d	-0.12725134
114	0xbdd6ce0d	-0.1048852
115	0x3dcb843d	0.09937332
116	0xbdae9360	-0.08524203
117	0x3de2c491	0.11072648
118	0xbe6e7e98	-0.23290479
119	0xbd156f95	-0.036483366
120	0xbeb0eb12	-0.34554344
121	0xbd0fb7e8	-0.035087496
122	0xbefac9a9	-0.4898198
123	0xbec64ffb	-0.38732895
124	0xbca85f8a	-0.02055337
125	0xbd4e12b6	-0.050310813
126	0xbc654581	-0.013993622
127	0xbe8890e5	-0.26673046
128	0xbc4016bc	-0.01172417
129	0xbb908e3b	-0.0044114864
130	0xbe4dd5dc	-0.20101112
131	0x29d4d059	9.450834e-14
132	0xbe7a16e0	-0.24422789
133	0xbd2f2e89	-0.04276899
134	0xbc669a12	-0.014074819
135	0x29a3751c	7.2589694e-14
136	0xbf0c2c6e	-0.54755294
137	0xbec21d8b	-0.37913164
138	0xbbb654af	-0.0055642943
139	0xbcec87e0	-0.028873384
140	0xbb51a5cf	-0.0031989699
141	0xbd3aea74	-0.04563375
142	0xbd0ef364	-0.034900084
143	0xbc03cd4f	-0.008044555
144	0x3d7de621	0.061987046
145	0x3e78e3f5	0.24305709
146	0x3db086a9	0.086194344
147	0x3d097265	0.03355636
148	0xbeadc7d3	-0.33941516
149	0x3e2d5242	0.1692591
150	0xbe9ab57d	-0.3021659
151	0xbc4800b1	-0.012207196
152	0xbe6ca375	-0.23109229
153	0x3e895986	0.26826113
154	0x3de1f3e6	0.11032848
155	0x2a776f75	2.1976676e-13
156	0x3d7bd88e	0.06148582
157	0xbf1210cc	-0.5705688
158	0xbe36b622	-0.17842916
159	0x2b13d57a	5.252115e-13
160	0x3e1194cc	0.14216918
161	0x3dba3aa1	0.09093214
162	0x3e2fccd9	0.17167987
163	0xbd99c850	-0.0750891
164	0x3eb4d787	0.35320684
165	0x3e8226fe	0.25420374
166	0xbeec9195	-0.4620482
167	0x3e816138	0.25269485
168	0x3d4f339d	0.05058633
169	0x3e874cd5	0.26425806
170	0x3dfa89a9	0.12233288
171	0x3d9fb836	0.07798807
172	0xbdf47669	-0.119366474
173	0xbced6e1d	-0.02898317
174	0xbdfb08eb	-0.1225756
175	0x3e21177a	0.15731612
176	0xbe9222fc	-0.28542316
177	0x3e6600d6	0.22461256
178	0xbca40488	-0.020021692
179	0xaab6c0af	-3.2463396e-13
180	0x3dfec34c	0.12439594
181	0xbe6e54a4	-0.23274475
182	0xbe68518b	-0.22687356
183	0x2a9f2dab	2.8275762e-13
184	0x3d4a8bf9	0.049449895
185	0x3d901228	0.07034713
186	0x3dad1544	0.08451322
187	0xbe8adfdd	-0.2712392
188	0x3e69b69c	0.22823566
189	0x3e134546	0.14381894
190	0xbd2beaf0	-0.0419721
191	0x3e63d82d	0.22250433
192	0xbcb53cc2	-0.022123698
193	0xbd89e665	-0.067333974
194	0x3cb3c347	0.021943701
195	0xbcda63cc	-0.026658915
196	0xbf18db77	-0.59709877
197	0xbe1e5ee8	-0.15465891
198	0x3e8835ec	0.2660364
199	0xbd20dd49	-0.039273534
200	0x3c296a99	0.010340356
201	0xbd9f08ba	-0.07765336
202	0xbd6ed519	-0.058308695
203	0xaa9e1e8f	-2.8087642e-13
204	0xbda75745	-0.08170942
205	0xbe2921bd	-0.16516776
206	0x3d88a3e7	0.06671887
207	0xa717c8e2	-2.1064358e-15
208	0xbd7515ec	-0.05983536
209	0x3e2ec284	0.1706639
210	0x3e111de4	0.14171559
211	0x3d9e14d5	0.07718817
212	0xbdba3591	-0.09092248
213	0xbbbf1f0e	-0.0058325594
214	0xbc8a5371	-0.016885491
215	0x3d54e2e0	0.051974177
216	0x3d4f7996	0.050653063
217	0x3d3d2b30	0.046183765
218	0x3bc0c2f5	0.0058826157
219	0x3dad64ea	0.084665135
220	0xbe988cf6	-0.29795045
221	0x3e012a0f	0.126137
222	0xbe945937	-0.28974316
223	0x3d924a95	0.07143132
224	0x3dd24b34	0.1026825
225	0xbc5e684c	-0.013574671
226	0x3ca440ef	0.020050494
227	0xaa990616	-2.7182483e-13
228	0x3c5f886d	0.013643366
229	0x3cf6ff70	0.030151099
230	0x3db62638	0.088940084
231	0xaa0e8b16	-1.2660389e-13
232	0x3c0bf3e4	0.008542035
233	0x3d81d09d	0.06338618
234	0xbd89cd48	-0.067286074
235	0x3e2764d3	0.16347055
236	0xbd16d5f9	-0.036825154
237	0x3e456ef6	0.1928061
238	0xbe7ea20b	-0.24866502
239	0xbbab4791	-0.0052270372
240	0x3e20fc85	0.15721329
241	0x3d2c33dc	0.042041644
242	0xbd4215c8	-0.047384053
243	0x3cc31583	0.023813969
244	0x3e119179	0.1421565
245	0x3e06e202	0.13172153
246	0xbe0425b9	-0.12905015
247	0x3c5b0b8f	0.013369455
248	0x3e412f52	0.18865708
249	0x3e2cdd1c	0.16881222
250	0x3d31304b	0.043258946
251	0x29cf5897	9.2080145e-14
252	0x3d4c13c6	0.049823545
253	0x3d56abe2	0.052410014
254	0xbe5f4b43	-0.21806054
255	0xab049a7f	-4.7110227e-13

768 f4 [24]
0	0xbf21e572	-0.6324073
1	0xbef96f29	-0.4871762
2	0x3ef02c84	0.46908963
3	0xbe69caac	-0.2283122
4	0x3f237907	0.6385655
5	0x3fd32e14	1.6498437
6	0xbe6c38b8	-0.23068511
7	0xbb1f5100	-0.0024309754
8	0x3ed077fb	0.40716538
9	0xbdf89242	-0.121372715
10	0xbee409bd	-0.4453868
11	0x3e72c7f8	0.23709095
12	0x3e8c266e	0.2737307
13	0xbe6d3eea	-0.23168531
14	0xbf86f361	-1.0543023
15	0x3f973cd0	1.1815434
16	0x3d868f31	0.0657028
17	0xbe7d270a	-0.24721923
18	0xbeb284b6	-0.34866875
19	0x3d8ec623	0.06971385
20	0xbe15429f	-0.14576195
21	0x400d6727	2.209421
22	0x3ed52f48	0.41637635
23	0xbe3f3320	-0.18671846

770 f4 [24, 1, 3, 3]
0	0xbe8dc831	-0.27691796
1	0x3fd8ecd8	1.6947279
2	0xbe88c883	-0.26715478
3	0xbf8e2e79	-1.1107932
4	0x3ecdc505	0.40189376
5	0xc0960686	-4.6882963
6	0xbe86f581	-0.2635918
7	0x401d937a	2.4621263
8	0x3fc1da33	1.5144714
9	0xbdd78106	-0.10522656
10	0xbec36983	-0.38166437
11	0xbe26902c	-0.16265935
12	0xbe9c8f17	-0.3057792
13	0xbf5180e2	-0.81837285
14	0xbf05521b	-0.5207841
15	0xbd1f1a43	-0.038843405
16	0xbeb8dd0f	-0.36106154
17	0xbe34fb0d	-0.17673893
18	0x3e19671c	0.1498074
19	0x3ea76856	0.3269679
20	0x3e9eccb4	0.3101555
21	0x3eb00560	0.343791
22	0x3f557272	0.83377755
23	0x3f4181ac	0.7558849
24	0x3de7a0b5	0.11309949
25	0x3f51e8ca	0.8199583
26	0x3f58d4c4	0.84699655
27	0x3e3de98e	0.18546125
28	0x3f11c24a	0.56937087
29	0x3f1b820d	0.60745317
30	0x3f05fb4b	0.5233657
31	0x3f852851	1.0402929
32	0x3f5b7ef5	0.85740596
33	0x3ecec85a	0.4038723
34	0x3f5a5692	0.85288346
35	0x3f449501	0.7678986
36	0xbebb0293	-0.365254
37	0x3fecb47f	1.8492583
38	0xbf800f7a	-1.0004723
39	0xbf40832b	-0.75200146
40	0x4005724c	2.0851011
41	0xbfef35f7	-1.8688344
42	0xbedfe969	-0.43732765
43	0x3fbca1d8	1.4736891
44	0xbf9c643f	-1.2218093
45	0x3eff1a71	0.4982486
46	0xbf4dc92c	-0.8038509
47	0x3f696c00	0.9118042
48	0x3ed70bde	0.4200124
49	0xc03a4f50	-2.9110909
50	0xbec72778	-0.388973
51	0x3f3ad46b	0.72980374
52	0xbee2b010	-0.4427495
53	0x3faf40db	1.3691667
54	0xbd91e896	-0.0712444
55	0xbe81a7a7	-0.2532322
56	0xbe907338	-0.28212905
57	0xbe665db7	-0.22496687
58	0xbf1c9443	-0.6116373
59	0xbf38fcc8	-0.72260714
60	0xbe26c0c0	-0.16284466
61	0xbeb9cbab	-0.362882
62	0xbf4ba5e4	-0.79550004
63	0xbe3ff6b1	-0.18746449
64	0xbea12f94	-0.31481612
65	0xbd88760e	-0.06663142
66	0xbe602e79	-0.21892728
67	0xbf138bdc	-0.57635283
68	0xbead3773	-0.33831367
69	0xbd05dd1d	-0.032681573
70	0xbec5320d	-0.38514748
71	0xbecabbb6	-0.39596337
72	0xbd148a1c	-0.036264524
73	0xbe5fa641	-0.21840765
74	0xbe9b1da6	-0.30296057
75	0xbebd005c	-0.36914337
76	0xbf42cd91	-0.7609492
77	0xbf291366	-0.66045225
78	0xbebe4545	-0.37162223
79	0xbf3b0e67	-0.7306885
80	0xbefd3d0e	-0.49460644
81	0x3c61552c	0.013753217
82	0x3eda07ce	0.4258408
83	0x3e3ba805	0.18325813
84	0x3e6eb797	0.23312221
85	0x3f435424	0.76300263
86	0x3f1156ba	0.5677296
87	0x3bf154b7	0.007364835
88	0x3eb43b82	0.3520165
89	0x3e7daed3	0.24773721
90	0xbe016b63	-0.12638621
91	0xbe913760	-0.2836256
92	0xbe7c8f5f	-0.24664067
93	0xbe8c9df6	-0.27464265
94	0xbf10fea3	-0.56638545
95	0xbf001829	-0.50036865
96	0xbe3e26ad	-0.18569441
97	0xbec6fedc	-0.38866317
98	0xbec8e204	-0.39234936
99	0x3e161990	0.14658189
100	0x3f1448e5	0.5792373
101	0x3f018889	0.5059896
102	0x3ec21b4e	0.37911457
103	0x3f8dca46	1.1077354
104	0x3f88ba41	1.068184
105	0x3e7df273	0.24799518
106	0x3f2b944c	0.6702316
107	0x3f1404de	0.57819927
108	0x3ef74084	0.4829141
109	0x3f9bd99f	1.2175788
110	0xbdaf1301	-0.085485466
111	0x3f629f4a	0.88524306
112	0x3f60e04d	0.87842256
113	0xbf304856	-0.68860376
114	0xbe34364b	-0.17598836
115	0xbe7a8a1f	-0.24466752
116	0xbfe1086a	-1.7580693
117	0xba387609	-0.00070366316
118	0xbe8d8559	-0.276408
119	0xbeb0181e	-0.343934
120	0xbe2e87e9	-0.17044033
121	0xbfa3bf7a	-1.2792809
122	0xbfc295fd	-1.5202023
123	0xbe912481	-0.28348163
124	0xbf8e7852	-1.1130469
125	0xbfb67bc0	-1.4256516
126	0xbd8938b2	-0.06700267
127	0xbe176da0	-0.14787912
128	0xbdfba651	-0.12287582
129	0xbe22e735	-0.15908511
130	0xbf0f3d38	-0.5595279
131	0xbf1e2acb	-0.61784047
132	0xbdac8290	-0.0842334
133	0xbf1d1ef6	-0.6137537
134	0xbf2c0096	-0.67188394
135	0x3eb15186	0.3463251
136	0x3f9f9419	1.2467071
137	0x3fb10192	1.3828604
138	0xbf01ed28	-0.50752497
139	0xc06f9997	-3.7437494
140	0xc0731707	-3.7982805
141	0x3f2d28d3	0.6764042
142	0x3ff401c7	1.9063042
143	0x402664da	2.5999055
144	0x3e2a4cf6	0.16630921
145	0x3e9e6325	0.30935016
146	0x3dd2cc76	0.10292904
147	0x3e612906	0.21988305
148	0x3f02d725	0.51109535
149	0x3eabeaa6	0.3357746
150	0x3db1d19e	0.086825594
151	0x3eb3c336	0.35109872
152	0x3ec79aa9	0.38985184
153	0xbe505ced	-0.20347948
154	0xbf0d4b78	-0.5519328
155	0xbee3a617	-0.44462654
156	0xbefdf5be	-0.4960155
157	0xbf8cde9d	-1.1005436
158	0xbf67ec99	-0.90595394
159	0xbebf22ad	-0.37331143
160	0xbf6a4a87	-0.9151997
161	0xbf84f22d	-1.0386406
162	0x3ddf980e	0.10917674
163	0xbe68cbaa	-0.22733942
164	0xbe872b54	-0.26400244
165	0xbdb1f861	-0.08689953
166	0xbf775a35	-0.9662202
167	0xbfe1e8ab	-1.764913
168	0x3e10c85a	0.14138928
169	0xc02d4e03	-2.7078865
170	0xc0724c7f	-3.785919
171	0xbe31ce20	-0.17363787
172	0xbed9d24a	-0.4254325
173	0xbec5e152	-0.38648468
174	0xbea24559	-0.31693533
175	0xbf8a1c1e	-1.0789831
176	0xbf8f79ec	-1.1209083
177	0xbe7d519b	-0.24738161
178	0xbf8223fd	-1.0167233
179	0xbf854050	-1.0410252
180	0xbde7cc54	-0.11318269
181	0xbea433a2	-0.32070643
182	0xbe864fbe	-0.26232713
183	0xbe7afd63	-0.24510722
184	0xbf209199	-0.62722164
185	0xbf328e6c	-0.6974857
186	0xbe0546b7	-0.13015257
187	0xbed9aa9a	-0.4251297
188	0xbf00dd70	-0.50337887
189	0xbdbe9cb5	-0.09307233
190	0xbe251404	-0.16120917
191	0xbde0f520	-0.10984254
192	0xbe805a60	-0.2506895
193	0xbf0973b5	-0.5369218
194	0xbf136abe	-0.5758475
195	0xbe26e0b2	-0.16296652
196	0xbf1de174	-0.6167214
197	0xbf3da23d	-0.7407568
198	0xbf2ba579	-0.67049366
199	0xc020b5c2	-2.5110936
200	0xbfafd433	-1.3736633
201	0xbd42397f	-0.047418114
202	0xbefb8357	-0.49123642
203	0xbe823f3f	-0.25438878
204	0x3f3c9747	0.7366833
205	0x404452f0	3.067562
206	0x3fd044dc	1.6271014
207	0xbeaaf291	-0.33388188
208	0xbe5ff8ed	-0.21872301
209	0xbe87f364	-0.2655288
210	0xbe4e493f	-0.20145129
211	0x3fa5d9b0	1.2957058
212	0x3fc2be43	1.5214313
213	0x3e9fd80f	0.31219527
214	0x401b6de2	2.4285817
215	0x402e5e24	2.724496

771 f4 [24]
0	0x3d3ced8b	0.046124976
1	0x3eb85600	0.36003113
2	0xbe5f4281	-0.21802713
3	0xbe62f254	-0.22162753
4	0x3d0da307	0.034579303
5	0x3e6aede3	0.22942309
6	0x3e9dbdfd	0.30809012
7	0x3f098695	0.5372098
8	0x3e8484f8	0.25882697
9	0xbef29c6c	-0.47384965
10	0x3e15a072	0.14611986
11	0xbe403196	-0.18768916
12	0xbde73c29	-0.112907715
13	0x3e93c992	0.28864723
14	0x3e80f6e2	0.25188357
15	0xbc97f819	-0.01855092
16	0xbef7fc3a	-0.4843462
17	0x3e83b10e	0.2572102
18	0x3f3d31b0	0.7390394
19	0x3e9b4513	0.30326137
20	0x3ea52411	0.3225408
21	0x3ec84a89	0.39119366
22	0xbd5dceb3	-0.0541522
23	0xbe65b4b1	-0.2243221

773 f4 [24, 24, 1, 1]
0	0x3cb7d9fa	0.022442807
1	0xbd00fdd3	-0.031492066
2	0xbbac9ffd	-0.0052680955
3	0x3cd85196	0.02640609
4	0xbb061c99	-0.0020463823
5	0xbcc9e9af	-0.024647562
6	0xbcd6305f	-0.026146112
7	0xbd078f99	-0.03309593
8	0x3a84f988	0.0010145167
9	0x3d94ed9b	0.07271882
10	0x3e0207b3	0.1269825
11	0xbcaa8f46	-0.020820271
12	0x3b2171ed	0.0024634555
13	0xbd5cb82c	-0.053886577
14	0xba228dac	-0.00062009203
15	0xbc9814f9	-0.018564688
16	0x3c9a23d0	0.018815905
17	0xbd281718	-0.04103765
18	0x3e1c9e11	0.15294673
19	0xbda70b32	-0.08156432
20	0xbc661ec4	-0.014045421
21	0xbd53ffa9	-0.05175749
22	0x3d1fcc9d	0.039013494
23	0x3cde45c2	0.027132872
24	0xbb8d8d72	-0.00431984
25	0x3d4a8487	0.049442794
26	0x3a5e23f1	0.00084739836
27	0xbd133b46	-0.0359452
28	0xbc1a8246	-0.009430474
29	0x3c572d9d	0.013133434
30	0x3e0bd490	0.13655305
31	0x3ca613b3	0.020273065
32	0x3d159248	0.036516458
33	0x3d87360b	0.06602105
34	0x3e098337	0.1342896
35	0x3dca19f7	0.09868234
36	0x3bbed381	0.005823553
37	0x3c8d2a03	0.017231947
38	0xbde0d524	-0.10978153
39	0xbd601eac	-0.05471675
40	0xbd0d1810	-0.034446776
41	0x3cf7f07c	0.03026604
42	0xbe0a18d5	-0.13486035
43	0xbd75dd84	-0.060025707
44	0x3e028759	0.12746944
45	0x3dacf10c	0.084444135
46	0xbf13a542	-0.5767404
47	0x3d8b8e54	0.06814256
48	0xbe4ca00a	-0.19982925
49	0xbc9dfa2a	-0.019284327
50	0x3e824f16	0.25450963
51	0xbb74ba2b	-0.003734241
52	0x3e514232	0.20435408
53	0xbeac0dd9	-0.33604315
54	0x3e2bdc5f	0.16783284
55	0xbc0d8e60	-0.008639902
56	0xbe4b4b5f	-0.1985297
57	0xbe2d2a1a	-0.16910592
58	0x3df30119	0.11865444
59	0xbd5adc63	-0.053432833
60	0x3ca436e6	0.020045709
61	0x3cbfa140	0.02339232
62	0x39b3706e	0.00034225307
63	0xbd73a430	-0.059482753
64	0xbceb6bcc	-0.028737925
65	0x3cefac1f	0.029256878
66	0xbd92f705	-0.071760215
67	0xbdd9e85f	-0.106400244
68	0x3e1a3496	0.15059122
69	0x3d8786d9	0.06617517
70	0x3dc93a44	0.098255664
71	0x3dc938cd	0.09825287
72	0x3d599c1e	0.0531274
73	0x3d0ee476	0.034885846
74	0x3e32ef63	0.17474131
75	0xbe18c5b9	-0.14919175
76	0xbde1fe38	-0.110348165
77	0xbd21c6f1	-0.039496366
78	0xbce00b17	-0.027349038
79	0xbc3e4f17	-0.011615536
80	0xbe775ee9	-0.24157299
81	0x3e2ec97f	0.17069052
82	0x3e1e57c7	0.15463172
83	0xbd8d02b2	-0.0688528
84	0xbd3d5a93	-0.046228956
85	0xbe824e55	-0.25450388
86	0xbe2af7ec	-0.16696137
87	0xbb604c5e	-0.0034225206
88	0xbd098890	-0.0335775
89	0xbdc085ce	-0.09400521
90	0x3e78612d	0.2425582
91	0xbde0aa11	-0.109699376
92	0xbed614dc	-0.4181279
93	0x3e478807	0.19485484
94	0x3dcd9fec	0.10040268
95	0x3e0ba491	0.13636996
96	0xbbaa6c52	-0.005200901
97	0x3d4ac4df	0.049504157
98	0xbc77f1e3	-0.015133354
99	0x3e6b96d6	0.23006758
100	0xbd0004df	-0.031254645
101	0x3caa0927	0.020756317
102	0x3e8f2070	0.27954435
103	0x3e823cbf	0.2543697
104	0xbc9d21f3	-0.019181227
105	0x3d74060b	0.059576076
106	0xbc1980bf	-0.009369074
107	0xbcb3bafe	-0.02193975
108	0xbe6112dd	-0.21979852
109	0xbde7037a	-0.1127996
110	0xbce12896	-0.027485173
111	0x3bf3957e	0.0074335923
112	0x3e3961a2	0.1810365
113	0x3e9e51ce	0.30921787
114	0xbcb8bbb3	-0.02255044
115	0x3cede97c	0.029041998
116	0xbe7431a1	-0.23847057
117	0x3c7cd648	0.015431948
118	0xbc206a93	-0.009791034
119	0xbc85ccf3	-0.016333079
120	0x3d64b584	0.05583717
121	0x3e63aafa	0.22233191
122	0xbdcf70b5	-0.10128919
123	0xbd83c07b	-0.06433197
124	0x3d89c6a3	0.0672734
125	0x3d9c9ae5	0.07646731
126	0xbc5f5138	-0.013630204
127	0x3e6b9acb	0.23008268
128	0x3bf3abd1	0.0074362536
129	0x3da82fc7	0.08212238
130	0x3e7ad98a	0.24497047
131	0xbdbc7768	-0.092024624
132	0x3d1ebf74	0.038756803
133	0xbda7fc8c	-0.08202466
134	0xbd2ff9a3	-0.04296268
135	0x3d196090	0.037445605
136	0xbe0e1378	-0.13874614
137	0x3e17cc3f	0.14824007
138	0xbcc1b474	-0.023645617
139	0xbd51784b	-0.05114011
140	0xbc3889f9	-0.011263364
141	0xbe114a16	-0.14188418
142	0x3dc14c5b	0.09438392
143	0xbd9cd92e	-0.07658611
144	0x3eca34ee	0.39493507
145	0x3e05364e	0.13008997
146	0x3e3588ca	0.17727962
147	0xbdb4a796	-0.08821027
148	0xbe45c91d	-0.19315
149	0xba8ddc8f	-0.0010823178
150	0x3d501a73	0.050806474
151	0x3da9140a	0.08255775
152	0xbe088906	-0.1333352
153	0x3dbfe89c	0.093705386
154	0x3d70c0bd	0.05877756
155	0x3db23c6d	0.087029316
156	0xbcaeab73	-0.021321988
157	0xbe1c23bc	-0.15248007
158	0xbc1a8150	-0.009430245
159	0xbe23dd2f	-0.16002344
160	0xbcfe207f	-0.031021355
161	0x3db266c2	0.08711006
162	0x3e13d4cd	0.14436646
163	0xbe015057	-0.12628303
164	0xbc8ef43f	-0.01745045
165	0x3d1e235e	0.038607948
166	0x3d5b9c3e	0.0536158
167	0x3d0c44a1	0.034245137
168	0xbe63fc4b	-0.22264211
169	0x3d5c8881	0.053841118
170	0x3daf02c4	0.085454494
171	0xbc712ebc	-0.014720615
172	0x3d469e89	0.048491035
173	0x3e700c22	0.23442128
174	0x3c2b902b	0.010471384
175	0x3d26aaea	0.04069034
176	0xbd8929f6	-0.066974565
177	0x3ceaaf98	0.028648183
178	0xbdca06d9	-0.09864587
179	0x3e968db8	0.29404998
180	0xbd01c570	-0.03168243
181	0x3da385be	0.07984494
182	0xbd6ad7e3	-0.057334792
183	0x3ee2be71	0.4428592
184	0xbd9cd849	-0.076584406
185	0x3cbf0c28	0.023321226
186	0xbc8db879	-0.017299877
187	0xbe07a010	-0.13244653
188	0xbd35421c	-0.0442525
189	0x3df17e71	0.11791695
190	0x3d4bbc90	0.049740374
191	0xbda9662d	-0.082714416
192	0x3c6a5c92	0.014304297
193	0xbd89b09c	-0.06723139
194	0xbc408260	-0.011749834
195	0x3e825a77	0.25459644
196	0xbc4d22f1	-0.012520538
197	0xba833b34	-0.0010012151
198	0x3e5d0dc9	0.2158729
199	0x3ea11ba5	0.31466404
200	0xbc685204	-0.01417971
201	0x3c194712	0.009355323
202	0xbb91f088	-0.0044537224
203	0xbcf893f9	-0.030343996
204	0xbc8f8912	-0.017521415
205	0xbd45a807	-0.048255946
206	0x3c25a141	0.010109247
207	0x3ba51ab2	0.0050385827
208	0x3e9dae55	0.30797067
209	0x3e9049d2	0.2818132
210	0x3c32c83c	0.010911997
211	0x3c8c5bc8	0.017133608
212	0xbe408637	-0.18801199
213	0x3b7d7181	0.003867239
214	0x3be05798	0.0068463795
215	0x3c173ed2	0.009231286
216	0x3d80c511	0.062875874
217	0x3df92ed1	0.12167133
218	0x3d054d59	0.032544468
219	0x3df0e822	0.11763026
220	0x3b7809f6	0.0037847734
221	0xbc9ac3de	-0.018892225
222	0x3c42fa7e	0.011900542
223	0xbdaa7353	-0.083227776
224	0xbdaed0d7	-0.08535927
225	0x3e3f0481	0.18654062
226	0xbe2f8d00	-0.17143631
227	0xbd8bfd63	-0.06835439
228	0x3d114c21	0.035472993
229	0xbda08526	-0.07837896
230	0xbe392e95	-0.18084176
231	0xbd54cde6	-0.051954173
232	0x3de28889	0.11061198
233	0xbdb067e0	-0.086135626
234	0x3d39ffd4	0.045409992
235	0x3d00feaa	0.031492867
236	0x3d9be545	0.07612089
237	0x3e83b13a	0.2572115
238	0xbdd96b58	-0.10616177
239	0xbe003be0	-0.1252284
240	0xbd0e0e29	-0.034681473
241	0xbdecb9c6	-0.11558871
242	0xbcb8ceb7	-0.022559507
243	0xbb0f368c	-0.002185258
244	0x3b5825dc	0.003298155
245	0x3c3b80e2	0.011444302
246	0xbd94de8f	-0.07269012
247	0x3d06b72f	0.03288954
248	0xbc456c6d	-0.0120497765
249	0x3d1d11a3	0.038346898
250	0x3cd17f8b	0.025573513
251	0x3acb8381	0.0015526862
252	0xbb11e819	-0.0022263585
253	0xbd23ebc0	-0.04001975
254	0xbd8bd48d	-0.0682765
255	0x3d1e0d5c	0.03858696

774 f4 [24]
0	0x3ec17d8c	0.37791097
1	0x3e1bcf24	0.15215737
2	0x3e20f959	0.15720119
3	0xbdc8536d	-0.09781537
4	0x3f082aad	0.5319012
5	0x3e968058	0.29394794
6	0x3e911f06	0.28343982
7	0x3d88d347	0.06680923
8	0x3bb4fa67	0.0055230143
9	0x3e997ce0	0.29978085
10	0x3f2c9cab	0.67426556
11	0xbb1c5487	-0.0023854093
12	0x3ef36f5c	0.47545898
13	0x3d5c8a86	0.053843044
14	0x3ef36b2d	0.47542706
15	0x3e4fef37	0.20306097
16	0x3e4cc59e	0.1999726
17	0xbdcecc32	-0.10097541
18	0x3e96ac59	0.29428366
19	0x3ea1da4a	0.31611854
20	0x3f0094e9	0.5022722
21	0x3d2df87b	0.042473298
22	0x3db68967	0.08912926
23	0x3d0f60ed	0.035004545

776 f4 [24, 24, 1, 1]
0	0x3d089a34	0.033350185
1	0x3e066035	0.13122638
2	0x3d544d3e	0.051831476
3	0xbc5d8625	-0.013520752
4	0xba360165	-0.0006942957
5	0x3d889797	0.066695385
6	0x3c57c158	0.013168655
7	0xbc9a90af	-0.018867819
8	0x3c87b227	0.016564442
9	0x3d8ac01d	0.06774924
10	0x3d6c4491	0.057682578
11	0x3d1f6b19	0.038920496
12	0x3c5ac8d3	0.013353544
13	0x3e24a6d7	0.1607927
14	0x3e627778	0.22115886
15	0xbdfccc77	-0.12343686
16	0xbe9a4a8f	-0.3013501
17	0xbe1277cb	-0.1430351
18	0x3dfa37aa	0.12217648
19	0x3d125181	0.03572226
20	0x3e871b65	0.26388088
21	0xbe864e16	-0.2623145
22	0x3e02ad6c	0.12761468
23	0x3d56de8d	0.052458335
24	0x3c705b8c	0.014670264
25	0xbe545aa4	-0.20737702
26	0xbeef967f	-0.46794507
27	0x3dc2ae23	0.0950587
28	0xbe84eae2	-0.2596045
29	0x3e491a0c	0.19638842
30	0xbf46f237	-0.7771334
31	0xbd634860	-0.055488944
32	0xbefdded6	-0.49584073
33	0x3eb579c7	0.3544447
34	0x3e446d3e	0.19182298
35	0x3e4ab315	0.19794877
36	0xbdc50cf4	-0.09621611
37	0xbd4c2d87	-0.049848106
38	0x3ce39c7a	0.027784575
39	0x3cd65c04	0.026166923
40	0xbc48a993	-0.012247461
41	0xbd452ae0	-0.048136592
42	0xbd475441	-0.048664335
43	0xbddec8f5	-0.10878173
44	0x3d2111b9	0.039323542
45	0x3ce4d54a	0.027933735
46	0x3d07129a	0.032976724
47	0xbd19c57a	-0.037541844
48	0x3f39cce4	0.72578263
49	0x3e231361	0.15925361
50	0x3cb2e159	0.02183597
51	0x3dc3799f	0.09544682
52	0x3eec57f9	0.46160868
53	0xbd06a7e5	-0.03287496
54	0xbf04f4e9	-0.51936203
55	0xbf0f72b6	-0.5603441
56	0xbc4e8e08	-0.012607105
57	0xbcc07eb6	-0.02349792
58	0xbae135c3	-0.001718216
59	0xbbd7f11e	-0.0065900227
60	0x3c4c36c0	0.012464225
61	0x3ca93874	0.020656802
62	0xbbc1faee	-0.0059198057
63	0xbd095783	-0.033530723
64	0x3d16599d	0.036706556
65	0x3d09b404	0.033618942
66	0x3d29e3c8	0.041476995
67	0xbcf68522	-0.03009278
68	0xbd697b28	-0.057002217
69	0x3d2b347f	0.04179811
70	0xbd8824fc	-0.06647679
71	0xbcc464dd	-0.023973877
72	0xbc97891e	-0.018498
73	0xbe34658b	-0.1761686
74	0xbd2688eb	-0.04065792
75	0x3e62c6fa	0.22146216
76	0xbd166a1e	-0.036722295
77	0xbc8ff82e	-0.017574396
78	0xbc927e3f	-0.017882464
79	0xbd36eac7	-0.044657495
80	0x3ca2f22d	0.019890869
81	0xbd0538e2	-0.03252495
82	0xbc0f1d04	-0.008734945
83	0xbc9e4422	-0.019319598
84	0x3d842ad2	0.0645348
85	0xbe902c62	-0.2815886
86	0x3d9442cd	0.07239304
87	0x3d3c530b	0.045977633
88	0xbea30e67	-0.31846926
89	0x3c344729	0.011003294
90	0xbe26b898	-0.16281354
91	0xbd7189a8	-0.05896917
92	0x3ca6cb48	0.020360604
93	0xbe7dec61	-0.24797203
94	0xbd3d4ab6	-0.046213828
95	0x3b0d088d	0.002151999
96	0x3ddacd3c	0.106836766
97	0xbf69f29e	-0.9138583
98	0x3e646309	0.22303404
99	0xbe42e8ad	-0.19034071
100	0x3bdbe9e1	0.00671123
101	0xbd5c7c0e	-0.053829245
102	0x3dfda12c	0.12384257
103	0x3e34cb43	0.17655663
104	0xbda30874	-0.07960597
105	0x3e693be3	0.22776751
106	0xbe283837	-0.16427694
107	0x3de22860	0.11042857
108	0xbd94d4a7	-0.07267123
109	0xbd014f52	-0.031569786
110	0xbdd74db8	-0.105128706
111	0xbe35abe3	-0.17741351
112	0xbe964306	-0.2934801
113	0xbe42a616	-0.1900867
114	0x3e7c75d0	0.24654317
115	0xbdb3289e	-0.087479815
116	0x3e0b74e7	0.13618813
117	0x3e95d3fc	0.29263294
118	0xbbee4524	-0.007271426
119	0x3e0d1878	0.13778865
120	0xbeb9b167	-0.3626816
121	0xbd78037b	-0.060550194
122	0x3db4cfb7	0.08828681
123	0x3ca866ee	0.020556893
124	0x3d4ddb0b	0.050257724
125	0xbd985da5	-0.07439736
126	0x3e015e26	0.12633571
127	0x3f34d50c	0.70637584
128	0x3da9e77e	0.08296107
129	0xbd938a68	-0.07204133
130	0xbd0292a1	-0.031878117
131	0xbcf13d86	-0.029448282
132	0x3c05a865	0.008157824
133	0x3de16fa9	0.110076256
134	0x3be9d2cb	0.007135724
135	0xbdbe54ac	-0.09293494
136	0xbd85548b	-0.06510266
137	0x3d066b6c	0.03281729
138	0x3de9643c	0.11396071
139	0x3ca0a968	0.01961203
140	0x3cbba91c	0.022907786
141	0x3d8ac622	0.06776072
142	0xbd993fca	-0.0748287
143	0x3d16cdaa	0.03681723
144	0x3d0ff662	0.03514708
145	0xbda0cc21	-0.078514345
146	0x3e0b7264	0.13617855
147	0xbd7a80ef	-0.061158117
148	0x3da12cd3	0.07869878
149	0x3e7e7d40	0.24852467
150	0xbd466d68	-0.04844418
151	0xbbb4e349	-0.0055202586
152	0xbe2ab416	-0.1667026
153	0xbe6f144d	-0.23347588
154	0xbdd74439	-0.10511059
155	0xbcb9aec6	-0.022666346
156	0x3eedab2f	0.46419665
157	0xbdc140c9	-0.09436185
158	0xbd004951	-0.03131992
159	0xbe8dfc6f	-0.27731654
160	0xbd8693a1	-0.06571127
161	0xbe08d6c2	-0.13363174
162	0x3dd3190f	0.10307514
163	0xbedf7aeb	-0.43648466
164	0xbb4c8ac2	-0.0031210636
165	0xbe300d6a	-0.17192617
166	0x3c891999	0.016735839
167	0xbe311aca	-0.17295375
168	0xbe1eec5f	-0.15519856
169	0xbcd6e0e3	-0.026230281
170	0x3e8bbda3	0.2729312
171	0x3da4043f	0.080086224
172	0x3dfb6e2a	0.122768715
173	0xbe6161df	-0.22009991
174	0xbe416786	-0.18887147
175	0x3e64ae24	0.22332054
176	0x3da4fe1e	0.080562815
177	0xbe62e191	-0.2215636
178	0x3a5615d1	0.0008166703
179	0xbf2ad9f2	-0.6673881
180	0x3ad8948c	0.0016523763
181	0xbd38bd02	-0.045102127
182	0x3d21b3ec	0.039478227
183	0xbd1e9dce	-0.038724713
184	0x3cc0cced	0.023535216
185	0xbc9e43aa	-0.019319374
186	0xbc2ce244	-0.010551993
187	0xbd3f0c09	-0.046642337
188	0x3dc3fbdd	0.095695235
189	0xbc861d4e	-0.016371395
190	0xbc8822db	-0.016618183
191	0x3d314d7b	0.04328678
192	0xbe0ea1ff	-0.13928984
193	0xbda8e487	-0.08246713
194	0x3e532752	0.20620468
195	0xbebd9ac8	-0.3703215
196	0x3df4aa01	0.11946488
197	0x3e87300f	0.26403853
198	0xbd326f64	-0.04356326
199	0x3e0ce3bf	0.13758753
200	0x3e145389	0.14484991
201	0x3cb81d1c	0.022474818
202	0xbc3f6524	-0.011681829
203	0xbd459227	-0.048235085
204	0x3ebd2271	0.3694034
205	0xbea33c58	-0.31881976
206	0x3e203390	0.1564467
207	0x3d99c32e	0.07507931
208	0x3e7b5f1f	0.24548005
209	0xbdd862e7	-0.10565739
210	0x3da94a1e	0.0826609
211	0x3f1da038	0.615726
212	0xbe4384f7	-0.19093691
213	0x3ea3e86c	0.3201326
214	0x3b721c0e	0.0036942991
215	0xbdba483f	-0.09095811
216	0x3d6ef5e0	0.058339953
217	0xbd263895	-0.040581305
218	0x3dee690b	0.11641129
219	0xbc94363b	-0.018092265
220	0x3d40eefb	0.04710291
221	0x3e25466a	0.16140142
222	0xbc2e0f7a	-0.010623807
223	0x3d44f192	0.048081942
224	0xbeba9977	-0.3644521
225	0xbe443895	-0.1916221
226	0xbdb5fb70	-0.088858485
227	0xbd2adc7d	-0.04171418
228	0xbf091294	-0.5354397
229	0xbd66546b	-0.05623285
230	0x3c4200ef	0.011841043
231	0xbde1dd76	-0.110285684
232	0x3d7ac182	0.0612197
233	0xbde97b78	-0.11400503
234	0xbdf4a826	-0.11946134
235	0x3e18921a	0.14899483
236	0x3d3386f9	0.04382989
237	0xbe7ca9de	-0.24674174
238	0xbdc45b47	-0.09587722
239	0xbeaae133	-0.33374938
240	0x3ca0b683	0.019618278
241	0xbd0a268f	-0.03372818
242	0x3dd10699	0.102063365
243	0x3cd453d7	0.025918884
244	0x3c65468b	0.01399387
245	0x3e10d882	0.14145091
246	0xbc3c3e78	-0.011489503
247	0x3c7d46c0	0.015458763
248	0xbe51900a	-0.20465103
249	0xbe120d23	-0.14262824
250	0x3cf87454	0.030328907
251	0xbcdd9caa	-0.027052242
252	0xbe6b5681	-0.22982217
253	0x3dacc589	0.08436114
254	0x3c8ba420	0.017046034
255	0x3d893e98	0.06701392

777 f4 [24]
0	0x3e5c6342	0.21522239
1	0x3e62216f	0.22083066
2	0x3df82224	0.12115887
3	0x3ee8b902	0.4545365
4	0x3ebea2ab	0.3723348
5	0xbbb73e40	-0.0055921376
6	0x3e3a0463	0.18165736
7	0x3dfa82a3	0.12231948
8	0xbe9b76e1	-0.30364135
9	0x3e7cb099	0.24676742
10	0x3e697ea7	0.2280222
11	0xbd868788	-0.06568819
12	0x3f1d62b0	0.6147871
13	0xbe989602	-0.29801947
14	0x3e30579b	0.17220919
15	0x3e2b4f73	0.16729526
16	0x3e22249b	0.15834276
17	0xbd4db9b4	-0.05022593
18	0x3d925b21	0.07146288
19	0x3dd27e27	0.10277968
20	0x3e0ed716	0.13949236
21	0x3ea680d2	0.32520157
22	0x3e30cedb	0.17266409
23	0x3d510dc0	0.051038504
